CubeMXAI/001Sine/models/sine/sinemodel.tflite (tflite, 2488 bytes, 3 tensors)

std.constant i1 [16, 1] scale=0.0042242804 zero_point=0
000000 75 1c 11 e1 0c 81 a5 42 fe d5 d4 b2 61 78 19 df
       0.4942408 0.11827985 0.071812764 -0.13095269 0.050691366 -0.5364836 -0.38440952 0.2788025 -0.008448561 -0.18164405 -0.18586834 -0.32949388 0.4097552 0.50691366 0.10560701 -0.13940126

std.constant1 i1 [16, 16] scale=0.012634607 zero_point=0
000000 ee fc 00 ec 05 17 ef ec e6 f8 03 01 00 fa f8 f5
       -0.22742292 -0.050538428 0.0 -0.25269213 0.06317303 0.29059595 -0.21478832 -0.25269213 -0.3284998 -0.101076856 0.037903823 0.012634607 0.0 -0.075807646 -0.101076856 -0.13898067
000010 dc eb 27 14 f1 de e2 db f0 de 31 06 02 e6 ee f9
       -0.45484585 -0.26532674 0.49274966 0.25269213 -0.1895191 -0.42957664 -0.3790382 -0.46748045 -0.20215371 -0.42957664 0.61909574 0.075807646 0.025269214 -0.3284998 -0.22742292 -0.08844225
000020 00 16 07 e0 fe ff e9 06 e7 ef 81 1b 18 ea c9 01
       0.0 0.27796134 0.08844225 -0.40430743 -0.025269214 -0.012634607 -0.29059595 0.075807646 -0.3158652 -0.21478832 -1.6045951 0.3411344 0.30323058 -0.27796134 -0.6949034 0.012634607
000030 0f 00 da f7 0e ec 13 1f 04 13 b4 e6 fd 06 b9 e0
       0.1895191 0.0 -0.48011506 -0.11371146 0.1768845 -0.25269213 0.24005753 0.39167282 0.050538428 0.24005753 -0.9602301 -0.3284998 -0.037903823 0.075807646 -0.8970571 -0.40430743
000040 0d ec f0 de eb f7 05 26 1a e4 6f 1a ea 1e 35 df
       0.1642499 -0.25269213 -0.20215371 -0.42957664 -0.26532674 -0.11371146 0.06317303 0.48011506 0.3284998 -0.353769 1.4024414 0.3284998 -0.27796134 0.3790382 0.66963416 -0.41694203
000050 1a f3 f1 19 0f 03 1b e1 de 13 f6 19 ff f6 1b 18
       0.3284998 -0.1642499 -0.1895191 0.3158652 0.1895191 0.037903823 0.3411344 -0.39167282 -0.42957664 0.24005753 -0.12634607 0.3158652 -0.012634607 -0.12634607 0.3411344 0.30323058
000060 f0 1c da 1b 1b 20 e5 1a f5 ff 96 0b 00 01 cd de
       -0.20215371 0.353769 -0.48011506 0.3411344 0.3411344 0.40430743 -0.3411344 0.3284998 -0.13898067 -0.012634607 -1.3392683 0.13898067 0.0 0.012634607 -0.64436495 -0.42957664
000070 0d f6 16 e3 ed fc 0e e9 fa eb 5c fc 1d 02 5b e2
       0.1642499 -0.12634607 0.27796134 -0.3664036 -0.24005753 -0.050538428 0.1768845 -0.29059595 -0.075807646 -0.26532674 1.1623838 -0.050538428 0.3664036 0.025269214 1.1497493 -0.3790382
000080 e1 f5 15 ec f4 00 13 05 ec 0c 1d 14 0e e7 0b f4
       -0.39167282 -0.13898067 0.26532674 -0.25269213 -0.15161529 0.0 0.24005753 0.06317303 -0.25269213 0.15161529 0.3664036 0.25269213 0.1768845 -0.3158652 0.13898067 -0.15161529
000090 19 00 d7 05 27 02 15 ea ea 02 9b 00 0c fa e8 ea
       0.3158652 0.0 -0.5180189 0.06317303 0.49274966 0.025269214 0.26532674 -0.27796134 -0.27796134 0.025269214 -1.2760953 0.0 0.15161529 -0.075807646 -0.30323058 -0.27796134
0000a0 fd 00 14 fd 0b 02 ef ee 06 ee 01 0d 06 e6 f7 11
       -0.037903823 0.0 0.25269213 -0.037903823 0.13898067 0.025269214 -0.21478832 -0.22742292 0.075807646 -0.22742292 0.012634607 0.1642499 0.075807646 -0.3284998 -0.11371146 0.21478832
0000b0 f7 09 f8 f1 21 ff 0e f3 ec 12 26 1d f2 e9 28 18
       -0.11371146 0.11371146 -0.101076856 -0.1895191 0.41694203 -0.012634607 0.1768845 -0.1642499 -0.25269213 0.22742292 0.48011506 0.3664036 -0.1768845 -0.29059595 0.50538427 0.30323058
0000c0 e0 fb f3 f4 05 1d 1d fb fd 1e fc 11 e8 07 09 03
       -0.40430743 -0.06317303 -0.1642499 -0.15161529 0.06317303 0.3664036 0.3664036 -0.06317303 -0.037903823 0.3790382 -0.050538428 0.21478832 -0.30323058 0.08844225 0.11371146 0.037903823
0000d0 12 f2 36 fb dc 1c f9 ef f3 e7 6f 0c 1d 00 45 fd
       0.22742292 -0.1768845 0.6822688 -0.06317303 -0.45484585 0.353769 -0.08844225 -0.21478832 -0.1642499 -0.3158652 1.4024414 0.15161529 0.3664036 0.0 0.8717879 -0.037903823
0000e0 0e f0 0b 19 1a fa e0 19 1f 13 36 1c 12 eb 3b 0c
       0.1768845 -0.20215371 0.13898067 0.3158652 0.3284998 -0.075807646 -0.40430743 0.3158652 0.39167282 0.24005753 0.6822688 0.353769 0.22742292 -0.26532674 0.7454418 0.15161529
0000f0 b4 cb e6 13 fa eb f1 06 1c fa 18 e5 eb cb 0c f4
       -0.9602301 -0.66963416 -0.3284998 0.24005753 -0.075807646 -0.26532674 -0.1895191 0.075807646 0.353769 -0.075807646 0.30323058 -0.3411344 -0.26532674 -0.66963416 0.15161529 -0.15161529

std.constant2 i1 [1, 16] scale=0.008502442 zero_point=0
000000 21 a5 8b ca 5e 1d ce 42 9d ce 1f b0 df 54 2f 81
       0.2805806 -0.77372223 -0.9947858 -0.4591319 0.79922956 0.24657083 -0.4251221 0.5611612 -0.8417418 -0.4251221 0.2635757 -0.6801954 -0.2805806 0.71420515 0.39961478 -1.0798101
