TFLite/001Sine/models/sine/quantint8/model.tflite (tflite, 2488 bytes, 3 tensors)

std.constant i1 [16, 1] scale=0.0042242804 zero_point=0
0.4942408 0.11827985 0.071812764 -0.13095269 0.050691366 -0.5364836 -0.38440952 0.2788025
-0.008448561 -0.18164405 -0.18586834 -0.32949388 0.4097552 0.50691366 0.10560701 -0.13940126
00000000: 751c 11e1 0c81 a542 fed5 d4b2 6178 19df

std.constant1 i1 [16, 16] scale=0.012634605 zero_point=0
-0.2274229 -0.05053842 0.0 -0.2526921 0.063173026 0.29059592 -0.21478829 -0.2526921
-0.32849973 -0.10107684 0.037903816 0.012634605 0.0 -0.07580763 -0.10107684 -0.13898066
-0.4548458 -0.2653267 0.4927496 0.2526921 -0.18951908 -0.42957658 -0.37903816 -0.4674804
-0.20215368 -0.42957658 0.6190957 0.07580763 0.02526921 -0.32849973 -0.2274229 -0.088442236
0.0 0.2779613 0.088442236 -0.40430737 -0.02526921 -0.012634605 -0.29059592 0.07580763
-0.31586513 -0.21478829 -1.6045948 0.34113434 0.30323052 -0.2779613 -0.69490325 0.012634605
0.18951908 0.0 -0.480115 -0.11371145 0.17688447 -0.2526921 0.2400575 0.39167276
0.05053842 0.2400575 -0.96023 -0.32849973 -0.037903816 0.07580763 -0.89705694 -0.40430737
0.16424987 -0.2526921 -0.20215368 -0.42957658 -0.2653267 -0.11371145 0.063173026 0.480115
0.32849973 -0.35376894 1.4024411 0.32849973 -0.2779613 0.37903816 0.6696341 -0.41694197
0.32849973 -0.16424987 -0.18951908 0.31586513 0.18951908 0.037903816 0.34113434 -0.39167276
-0.42957658 0.2400575 -0.12634605 0.31586513 -0.012634605 -0.12634605 0.34113434 0.30323052
-0.20215368 0.35376894 -0.480115 0.34113434 0.34113434 0.40430737 -0.34113434 0.32849973
-0.13898066 -0.012634605 -1.3392682 0.13898066 0.0 0.012634605 -0.64436483 -0.42957658
0.16424987 -0.12634605 0.2779613 -0.36640355 -0.2400575 -0.05053842 0.17688447 -0.29059592
-0.07580763 -0.2653267 1.1623837 -0.05053842 0.36640355 0.02526921 1.149749 -0.37903816
-0.39167276 -0.13898066 0.2653267 -0.2526921 -0.15161526 0.0 0.2400575 0.063173026
-0.2526921 0.15161526 0.36640355 0.2526921 0.17688447 -0.31586513 0.13898066 -0.15161526
0.31586513 0.0 -0.51801884 0.063173026 0.4927496 0.02526921 0.2653267 -0.2779613
-0.2779613 0.02526921 -1.2760952 0.0 0.15161526 -0.07580763 -0.30323052 -0.2779613
-0.037903816 0.0 0.2526921 -0.037903816 0.13898066 0.02526921 -0.21478829 -0.2274229
0.07580763 -0.2274229 0.012634605 0.16424987 0.07580763 -0.32849973 -0.11371145 0.21478829
-0.11371145 0.11371145 -0.10107684 -0.18951908 0.41694197 -0.012634605 0.17688447 -0.16424987
-0.2526921 0.2274229 0.480115 0.36640355 -0.17688447 -0.29059592 0.5053842 0.30323052
-0.40430737 -0.063173026 -0.16424987 -0.15161526 0.063173026 0.36640355 0.36640355 -0.063173026
-0.037903816 0.37903816 -0.05053842 0.21478829 -0.30323052 0.088442236 0.11371145 0.037903816
0.2274229 -0.17688447 0.6822687 -0.063173026 -0.4548458 0.35376894 -0.088442236 -0.21478829
-0.16424987 -0.31586513 1.4024411 0.15161526 0.36640355 0.0 0.8717878 -0.037903816
0.17688447 -0.20215368 0.13898066 0.31586513 0.32849973 -0.07580763 -0.40430737 0.31586513
0.39167276 0.2400575 0.6822687 0.35376894 0.2274229 -0.2653267 0.7454417 0.15161526
-0.96023 -0.6696341 -0.32849973 0.2400575 -0.07580763 -0.2653267 -0.18951908 0.07580763
0.35376894 -0.07580763 0.30323052 -0.34113434 -0.2653267 -0.6696341 0.15161526 -0.15161526
00000000: eefc 00ec 0517 efec e6f8 0301 00fa f8f5
00000010: dceb 2714 f1de e2db f0de 3106 02e6 eef9
00000020: 0016 07e0 feff e906 e7ef 811b 18ea c901
00000030: 0f00 daf7 0eec 131f 0413 b4e6 fd06 b9e0
00000040: 0dec f0de ebf7 0526 1ae4 6f1a ea1e 35df
00000050: 1af3 f119 0f03 1be1 de13 f619 fff6 1b18
00000060: f01c da1b 1b20 e51a f5ff 960b 0001 cdde
00000070: 0df6 16e3 edfc 0ee9 faeb 5cfc 1d02 5be2
00000080: e1f5 15ec f400 1305 ec0c 1d14 0ee7 0bf4
00000090: 1900 d705 2702 15ea ea02 9b00 0cfa e8ea
000000a0: fd00 14fd 0b02 efee 06ee 010d 06e6 f711
000000b0: f709 f8f1 21ff 0ef3 ec12 261d f2e9 2818
000000c0: e0fb f3f4 051d 1dfb fd1e fc11 e807 0903
000000d0: 12f2 36fb dc1c f9ef f3e7 6f0c 1d00 45fd
000000e0: 0ef0 0b19 1afa e019 1f13 361c 12eb 3b0c
000000f0: b4cb e613 faeb f106 1cfa 18e5 ebcb 0cf4

std.constant2 i1 [1, 16] scale=0.008502002 zero_point=0
0.28056607 -0.7736822 -0.9947342 -0.4591081 0.7991882 0.24655806 -0.4251001 0.56113213
-0.84169817 -0.4251001 0.26356205 -0.68016016 -0.28056607 0.71416813 0.3995941 -1.0797542
00000000: 21a5 8bca 5e1d ce42 9dce 1fb0 df54 2f81
